model_state/segmentation.pth (torch, 441916 bytes, 7 tensors)

encoder.0.weight f4 [32, 3, 5, 5]
0	0xbd95a806	-0.073074386
1	0xbdd61810	-0.10453808
2	0xbd87ba83	-0.06627371
3	0xbc9f66c3	-0.01945818
4	0x3d4a78e1	0.049431685
5	0x3cd97efd	0.02654981
6	0xbd3b823c	-0.045778498
7	0xbd18695e	-0.03720986
8	0x3d52ac6d	0.05143397
9	0x3b7ec3ad	0.0038873956
10	0xbc09314a	-0.008373568
11	0x3d709df3	0.058744382
12	0x3dc9c283	0.09851553
13	0xbcf4a556	-0.029863995
14	0xbd93043b	-0.07178541
15	0xbc2921f6	-0.010323038
16	0x3d891a7f	0.06694507
17	0x3d2b7d90	0.041867793
18	0xbd8365f6	-0.06415932
19	0xbdb80522	-0.08985354
20	0x3d097dcf	0.033567246
21	0xbde5e989	-0.11226184
22	0x3dce0ce5	0.10061053
23	0x3d44cfe5	0.048049826
24	0x3d9c8a76	0.07643597
25	0x3d8f42e2	0.06995179
26	0x3de8eeb4	0.11373654
27	0xbdb7f72b	-0.089826904
28	0xbdc879bf	-0.09788846
29	0x3d8fd026	0.07022123
30	0x3df9d196	0.121981785
31	0x3cb2e0ee	0.02183577
32	0xbd2bdbfc	-0.04195784
33	0xbcb3525e	-0.021889862
34	0x3dc2cf91	0.095122464
35	0x3df443cb	0.11926993
36	0x3cd96260	0.026536167
37	0xbd3c326e	-0.04594653
38	0xbd70923d	-0.058733214
39	0xbda40438	-0.08008617
40	0xbbf41f72	-0.0074500376
41	0x3dd6cd32	0.10488357
42	0x3ab1cf9f	0.0013565904
43	0x3b9b7d46	0.0047451584
44	0x3c902332	0.017594907
45	0x3c0948e8	0.008379199
46	0x3d8fa2cb	0.07013472
47	0x3de4d8d6	0.11174171
48	0xbd89c640	-0.06727266
49	0xbdc8edb5	-0.09810964
50	0xbd7e9195	-0.062150557
51	0xbd4098a6	-0.047020577
52	0xbdd94306	-0.10608487
53	0xbdc71f15	-0.09722725
54	0xbd034570	-0.032048643
55	0x3be717dd	0.0070524053
56	0xbc8145a7	-0.015780283
57	0x3d19ff4c	0.037596986
58	0xbd97b4bd	-0.0740752
59	0xbcce20ab	-0.025162062
60	0x3dc4f05f	0.0961616
61	0xbd267bdf	-0.040645476
62	0xbd4ce331	-0.050021354
63	0xbc95748a	-0.018244047
64	0x3cf4f2ca	0.029900927
65	0xbd471097	-0.048599806
66	0x3d88d466	0.06681137
67	0xbd9a308f	-0.07528793
68	0x3dbcfe6a	0.09228213
69	0x3cb3bba7	0.021940066
70	0x3d2386df	0.039923545
71	0xbd99600c	-0.074890226
72	0x3da33d22	0.079706445
73	0xbc994337	-0.018708808
74	0xbcfecfc1	-0.031104924
75	0x3d551627	0.05202308
76	0xbcead22d	-0.028664673
77	0xbd0a62e1	-0.033785705
78	0x3d42ba18	0.047540754
79	0x3d09bf77	0.03362986
80	0x3dcd0cd0	0.100122094
81	0x3daf0cc5	0.085473575
82	0x3b96c98b	0.0046016625
83	0x3db43fa8	0.08801204
84	0x3c211f86	0.009834176
85	0x3d6a7449	0.057239804
86	0xbdc24a2e	-0.09486805
87	0x3d7eea5e	0.06223523
88	0x3d92af2b	0.07162317
89	0xbda101ef	-0.07861697
90	0xbb848fbc	-0.004045455
91	0x3d3c2c4a	0.045940675
92	0x3ca99ea1	0.020705523
93	0xbdb742b6	-0.08948271
94	0xbdcd852e	-0.10035168
95	0x3da4d4b6	0.08048384
96	0x3b1b2645	0.0023673933
97	0x3d467dbe	0.04845976
98	0x3b9d66df	0.004803523
99	0x3dbed4ef	0.093179576
100	0x3d229377	0.039691415
101	0x3ca47a4c	0.020077847
102	0xbdbd58a7	-0.09245425
103	0x3cb06b9f	0.021535693
104	0xbd79ad18	-0.06095609
105	0xbdd6fb53	-0.10497155
106	0xbd368142	-0.044556864
107	0x3d93e0fe	0.07220648
108	0xbde9e6dd	-0.11420987
109	0xbbdcd222	-0.006738917
110	0x3dbe0957	0.09279125
111	0xbde11b3d	-0.109915234
112	0x3d81a03d	0.06329391
113	0x3d95a17b	0.073061906
114	0xbd5cee73	-0.05393834
115	0xbde666f4	-0.112501055
116	0x3c990a24	0.018681593
117	0xbd47cca8	-0.04877916
118	0xbd9f7e82	-0.07787801
119	0x3da3138f	0.07962715
120	0x3ba44b4d	0.0050138594
121	0x3dc09f48	0.094053805
122	0xb98c2eba	-0.00026737695
123	0x3d13d6ff	0.036093708
124	0x3d4685ef	0.048467573
125	0xbc5dd6e1	-0.013540001
126	0x3ca50f94	0.02014903
127	0x3ba26c26	0.00495674
128	0x3d89ceca	0.06728895
129	0xbd6674a6	-0.05626359
130	0x3b56dc03	0.0032784946
131	0x3d1c705c	0.03819309
132	0xbde04a8c	-0.10951719
133	0x3d572fa7	0.05253568
134	0x3dc742fe	0.097295746
135	0xbd78e8dc	-0.060768947
136	0x3d593df3	0.053037595
137	0x3c25e3f3	0.010125148
138	0x3dbd64f4	0.09247771
139	0x3c71d575	0.014760365
140	0xba1549f2	-0.00056949176
141	0x3da30069	0.079590626
142	0x3dd6cea7	0.104886346
143	0x3d9b1c6b	0.0757378
144	0xbb20cb76	-0.0024535335
145	0xbdd8377d	-0.105574585
146	0x3d9c1a17	0.07622164
147	0x3d8f9c43	0.070122264
148	0x3d42051a	0.047368146
149	0x3df0f2ef	0.11765086
150	0xbd9e07c7	-0.07716327
151	0x3d6eefba	0.05833409
152	0xbcfbc032	-0.030731294
153	0x3dd58729	0.104261704
154	0x3ddcabdd	0.10774968
155	0x3d8b63af	0.068061225
156	0x3dc4aa9b	0.09602853
157	0xbd7da9b7	-0.06192943
158	0x3d8b0f41	0.06790019
159	0x3d0a27c1	0.03372932
160	0xbd9c6609	-0.07636649
161	0x3c7f528c	0.015583646
162	0x3d3db362	0.04631365
163	0x38801420	6.107264e-05
164	0xbdef84c5	-0.11695246
165	0xbd90ea0a	-0.070758894
166	0x3dafa618	0.08576602
167	0x3bdf1771	0.0068082144
168	0x3de415d3	0.11136975
169	0xbd8129c7	-0.063067965
170	0x3dae3426	0.0850604
171	0xbd444586	-0.047917865
172	0xbda6c0ce	-0.08142243
173	0xbca6f054	-0.02037827
174	0x3d5728e1	0.05252922
175	0xbd27f15b	-0.04100166
176	0xbdba3c7f	-0.0909357
177	0x3bfae3e4	0.007656561
178	0x3dbab4c1	0.09116507
179	0x3bd002ea	0.0063480036
180	0xbd7427e1	-0.059608344
181	0x3cdfc471	0.02731535
182	0xbb9f07ab	-0.004853209
183	0xbb9c6b94	-0.0047735665
184	0xbdd300c2	-0.10302879
185	0xbde0b546	-0.10972075
186	0x3d9367b8	0.07197517
187	0xbdd3ebc7	-0.10347705
188	0x3d188ae9	0.03724185
189	0x3dbb2f9e	0.09139942
190	0xbd582e22	-0.05277837
191	0xbd5cc1df	-0.053895827
192	0x3c718b2a	0.014742652
193	0xbdef1b56	-0.11675136
194	0xbc1d5353	-0.009602386
195	0xbda35bf0	-0.0797652
196	0xbd2efdf0	-0.042722642
197	0x3dc8f947	0.09813171
198	0xbdd4e91d	-0.10396025
199	0xbd933d3d	-0.07189415
200	0xbbd68943	-0.0065471246
201	0x3deca1ef	0.11554324
202	0xbcec1cc2	-0.028822307
203	0x3ddd372d	0.108015396
204	0x3d8a3ba4	0.06749657
205	0x3cf9aa68	0.030476764
206	0xbd1c1371	-0.03810448
207	0x3d68214c	0.05667238
208	0xbc49fe1c	-0.012328651
209	0x3dae1480	0.08500004
210	0x3d4ad13c	0.049515948
211	0xbdad0e2a	-0.08449967
212	0x3dbcca93	0.092183255
213	0x3db4317b	0.087985
214	0xbd5f32aa	-0.054491676
215	0xbd5dd2b6	-0.054156028
216	0x3da49373	0.08035936
217	0xbd5ede3a	-0.05441115
218	0xbb3026c8	-0.0026878584
219	0xbd4e550d	-0.05037408
220	0xbd666dff	-0.056257244
221	0x3d4c5c58	0.049892753
222	0x3da6bb6a	0.08141215
223	0x3da81508	0.082071364
224	0xbd84236b	-0.06452068
225	0xbd4ccf25	-0.050002236
226	0x3d95cacd	0.07314072
227	0xbb074454	-0.0020640092
228	0xbd8281b6	-0.06372397
229	0x3d8088b3	0.06276073
230	0xbdc277a1	-0.09495474
231	0xbd37b1b9	-0.044847224
232	0xbd0c85d5	-0.03430732
233	0x3d7569a6	0.059915207
234	0x3d1af7c2	0.037833937
235	0x3cb8009c	0.022461228
236	0x3bb01339	0.0053733853
237	0xbb203078	-0.0024442952
238	0x3dc7fd65	0.09765128
239	0xbdad6b75	-0.084677614
240	0x3d40e678	0.047094792
241	0xbcb6c818	-0.022312209
242	0xbddd6b68	-0.10811502
243	0xbdb98e4c	-0.09060344
244	0x3d6463b8	0.05575916
245	0xbd91d76c	-0.071211666
246	0xbdc7e46e	-0.097603664
247	0x3d1c0345	0.038089056
248	0x3deefaed	0.11668954
249	0xbd817c53	-0.06322541
250	0xbda26207	-0.079288535
251	0xbdb877ed	-0.09007249
252	0xbc0ace4b	-0.008472036
253	0x3dd1d801	0.102462776
254	0x3d9d0c2f	0.076683395
255	0x3d0de022	0.034637578

encoder.0.bias f4 [32]
0	0x3da42d32	0.08016433
1	0xbda7aff0	-0.08187854
2	0x3dc3c686	0.0955935
3	0xbd552dc0	-0.052045584
4	0x3d31b9e2	0.043390162
5	0x3d44a777	0.04801127
6	0xbdcd65c3	-0.10029175
7	0x3d22382a	0.039604343
8	0x3dc727d2	0.09724392
9	0xbce9c3c0	-0.028535724
10	0xbde3e146	-0.11126952
11	0xbdb642fd	-0.08899496
12	0x3d7c6be4	0.06162633
13	0x3d518182	0.0511489
14	0xba05d0aa	-0.0005104641
15	0xbd3dfb5a	-0.046382286
16	0xbce4e7db	-0.027942589
17	0xbd1b3053	-0.037887882
18	0xbd5400e8	-0.051758677
19	0x3da65784	0.08122161
20	0x3c2e0813	0.010622042
21	0x3d800865	0.06251601
22	0xbc59a280	-0.013283372
23	0xbce12539	-0.02748357
24	0x3d29e0dc	0.04147421
25	0xbb19d160	-0.0023470744
26	0xbb7236eb	-0.0036959003
27	0x3dce9eda	0.10088892
28	0xbd5247a2	-0.051337846
29	0xbc349ab3	-0.011023211
30	0x3d31ec35	0.043438155
31	0xbd8d987f	-0.06913852

encoder.2.weight f4 [64, 32, 4, 4]
0	0x3a1ff543	0.00061019155
1	0xbc496e37	-0.012294344
2	0xbcd3e214	-0.025864638
3	0xbd0e8356	-0.03479322
4	0xbc92e80f	-0.01793292
5	0xbb9c6f28	-0.004773993
6	0x3c930caf	0.017950384
7	0x3cd4c14e	0.025971081
8	0xbc0177a9	-0.007902064
9	0xbcd30cca	-0.025762934
10	0xbd07566b	-0.0330414
11	0xbd3432af	-0.04399365
12	0x3cda6823	0.026660984
13	0x3b50500c	0.0031785993
14	0x3cdc2df9	0.02687739
15	0xbc00ab41	-0.00785333
16	0x3bcb03fe	0.0061955443
17	0x3bd2cc37	0.0064330357
18	0x3d19aa89	0.03751615
19	0xbcad5c81	-0.021162273
20	0x3cfd4d19	0.030920552
21	0x3c13deb2	0.009025263
22	0x3cdd89cb	0.027043244
23	0xbc15a319	-0.009133124
24	0x3a098a07	0.0005246703
25	0x3d1b8cac	0.037975952
26	0x3d1c4d42	0.038159616
27	0xbd060e40	-0.032728434
28	0x3d0ac1a4	0.033876076
29	0x3bdb0bf9	0.006684777
30	0xbc8b7561	-0.017023744
31	0xbc6319a8	-0.013861097
32	0xba6684ff	-0.00087936217
33	0x3d195c25	0.03744139
34	0x3b8f6d0b	0.0043770126
35	0xbc1ac29e	-0.009445814
36	0x3d10efeb	0.035385054
37	0xbc708b93	-0.014681715
38	0x3cf7369d	0.030177409
39	0x3cb44ead	0.022010172
40	0x3cb7b4f5	0.022425154
41	0xbd26b77a	-0.04070232
42	0xbd0b0fc9	-0.0339506
43	0x3d414080	0.047180653
44	0x3b73502d	0.0037126646
45	0xbb96838b	-0.004593318
46	0x3c9f082e	0.01941308
47	0xbbf00ba1	-0.007325605
48	0xbc84dce7	-0.016218616
49	0x3cec7723	0.028865403
50	0xbc00259e	-0.007821469
51	0x3c634d2f	0.0138733825
52	0xbb116de3	-0.0022190742
53	0xbca998c0	-0.02070272
54	0x3c077753	0.008268195
55	0x3c193fa1	0.009353549
56	0x3b9d55a9	0.0048014713
57	0x3c7b1022	0.015323671
58	0x3cee8c3c	0.029119603
59	0x3d053e87	0.032530334
60	0x3cbde6fa	0.023181427
61	0x3c8bf4b0	0.01708445
62	0xbc6b031a	-0.014344001
63	0xbbd52f52	-0.006505885
64	0x3cb8c6bc	0.022555701
65	0x3cc8da51	0.024518164
66	0xbcdd71d6	-0.02703182
67	0xbbd4defe	-0.0064963093
68	0x3c55c2d1	0.013046936
69	0x3c946847	0.01811613
70	0x3cc2fa93	0.023801124
71	0xbd06138b	-0.03273348
72	0xbd2f370f	-0.042777117
73	0xbd03523c	-0.032060847
74	0x3be7430d	0.0070575536
75	0x3bcc8c58	0.006242316
76	0x3c56a487	0.01310075
77	0x3d0fb0c0	0.03508067
78	0x3cef16f4	0.02918575
79	0x3c0334d6	0.008008203
80	0x3c4e7355	0.0126007395
81	0xbcb964bb	-0.02263104
82	0x3c0e839a	0.008698368
83	0x3c6a1998	0.014288329
84	0x3cecece4	0.028921552
85	0x3c59406e	0.01325999
86	0xbc358a43	-0.011080327
87	0xbaa12d75	-0.0012296872
88	0x3d24a302	0.04019452
89	0xbad98842	-0.0016596394
90	0x3ce2aa9c	0.027669244
91	0x3d24f96b	0.040276926
92	0xbb952394	-0.0045513604
93	0x3bfb1ef1	0.0076636006
94	0x3ced2ba7	0.02895148
95	0x3c984c2e	0.018591013
96	0x3d3d4501	0.046208385
97	0xbba8d630	-0.0051524863
98	0x3d02c2d4	0.031924084
99	0xbcfb7f9e	-0.030700501
100	0xbcc2886c	-0.023746692
101	0xbd1e253b	-0.038609724
102	0xbcbcc535	-0.023043254
103	0x3c300a96	0.010744711
104	0xbccafc09	-0.024778383
105	0xbca73a21	-0.02041346
106	0xbcc5c016	-0.024139445
107	0x3cc4be1c	0.024016432
108	0xbcfa99f9	-0.030590998
109	0x3cb2dc66	0.02183361
110	0xbd19f8f9	-0.037590954
111	0x3c3fee6c	0.011714559
112	0x3cb29ab1	0.021802278
113	0x3d392177	0.04519793
114	0xbd082426	-0.0332376
115	0xbce1ad10	-0.027548343
116	0x3d35343b	0.044239264
117	0x3d2b9896	0.041893564
118	0x3d1ff746	0.039054178
119	0x3cdda1ae	0.027054634
120	0x3d2ee97a	0.04270313
121	0x3d279b89	0.040919814
122	0x3d0c475a	0.034247734
123	0x3cdbe7ac	0.026843868
124	0xba8ba45a	-0.0010653839
125	0xbb4003d4	-0.0029299157
126	0x3aea0e60	0.0017857067
127	0x3d0e8da2	0.03480304
128	0x3c70cd61	0.014697404
129	0x3c31ca5c	0.010851469
130	0x3cf73a13	0.03017906
131	0x3d2086f7	0.039191213
132	0x3d1c8dfe	0.03822135
133	0x3cc877cd	0.024471188
134	0xbd059a2a	-0.032617725
135	0xbcbc6b6b	-0.02300044
136	0xbd21896a	-0.03943769
137	0x3d329a00	0.043603897
138	0xbcc982d2	-0.024598513
139	0x3cd5be92	0.026091848
140	0xbc378a4e	-0.011202408
141	0x3c25a2ac	0.010109585
142	0xbd00426b	-0.03131334
143	0xbcae2fcd	-0.021263028
144	0xba9a9cc2	-0.0011795985
145	0x3c78b66b	0.015180211
146	0xbc71d3a2	-0.01475993
147	0xbbeea79f	-0.0072831656
148	0x3caa741b	0.020807317
149	0xbd010f51	-0.031508747
150	0xbb918f29	-0.004442115
151	0xbbd111c9	-0.006380294
152	0xbd1bb939	-0.03801844
153	0xbc3b41da	-0.011429274
154	0xbc73c297	-0.014877937
155	0xba4efc1e	-0.0007895845
156	0xbc558598	-0.0130323395
157	0xbd30b2d2	-0.043139286
158	0x3d0be3ee	0.034152918
159	0xbcec99fb	-0.028882017
160	0x3c629648	0.013829775
161	0x3c990009	0.018676775
162	0x3c9f34ae	0.0194343
163	0x3b059d8b	0.0020388092
164	0x3cd6dade	0.02622741
165	0xbb784ed4	-0.0037888782
166	0xbbf7cabc	-0.0075620096
167	0x3b2abd48	0.0026052762
168	0x3d3b6132	0.04574699
169	0x3d2a1f1c	0.041533574
170	0xbc9749ef	-0.018467871
171	0xbc0306f0	-0.0079972595
172	0x3ccc7ba7	0.024961306
173	0x3c555b22	0.013022216
174	0x3c61c04d	0.013778758
175	0xbd018943	-0.031625044
176	0x3d014efc	0.031569466
177	0x3d16f07a	0.03685043
178	0xbc751f94	-0.014961142
179	0x3cc75515	0.024332562
180	0x3b966d48	0.004590664
181	0x3cee3729	0.029079037
182	0x3cc03e51	0.023467215
183	0xbbaa552b	-0.005198141
184	0xbd291dad	-0.041288067
185	0x3d0c8a6c	0.034311697
186	0xbd037423	-0.03209318
187	0x3d03f6a4	0.032217637
188	0x3a418a84	0.0007383006
189	0x3c8fa02b	0.017532429
190	0x3b4a9166	0.0030909418
191	0xbd108f86	-0.035293125
192	0x3c85df16	0.016341727
193	0xbd0cfd51	-0.03442127
194	0x3c3d7261	0.011562915
195	0xbbf93341	-0.007604987
196	0x3ca36dcc	0.019949816
197	0xbb9fa28c	-0.004871672
198	0xbcf1593d	-0.029461497
199	0x3d3e94f9	0.04652879
200	0xba82d925	-0.0009982927
201	0x3c940f8a	0.018073816
202	0x3c1b5684	0.009481076
203	0xbd107ac0	-0.035273314
204	0xbc71a571	-0.014748917
205	0xbc3d494a	-0.011553118
206	0xbcba40bb	-0.022735944
207	0x3d24c9b8	0.040231436
208	0xbac64be8	-0.0015128823
209	0x3b0bd391	0.002133582
210	0x38ff320b	0.00012168669
211	0x3d2da4ea	0.042393602
212	0x3d213f46	0.039366983
213	0xbd09755c	-0.03355919
214	0xbc397697	-0.011319778
215	0xbc99121d	-0.018685395
216	0x3d2e66e0	0.042578578
217	0xbcdc51d9	-0.026894497
218	0x3d1cf7fa	0.038322426
219	0xbb3d52df	-0.0028888506
220	0xbc8d7f11	-0.017272504
221	0x3d065462	0.032795317
222	0x3a0a6aa2	0.0005280172
223	0x3d11e7a7	0.03562131
224	0x3d1c9b1e	0.03823387
225	0xbd15cce6	-0.03657236
226	0xbc8683a0	-0.016420186
227	0x3c4fb9c0	0.012678564
228	0xbcf6cc0b	-0.030126592
229	0xbcb17c7e	-0.021665808
230	0x3c3e6560	0.011620849
231	0xbcc4f540	-0.024042726
232	0xbd2d0284	-0.042238727
233	0xbc286c8c	-0.010279786
234	0xbc453104	-0.012035612
235	0xbc0a86a5	-0.008454953
236	0x3cf584be	0.029970523
237	0xbc9d66dc	-0.019214086
238	0x3cae2643	0.021258479
239	0xbcd0e440	-0.025499463
240	0xbd2513f4	-0.040302232
241	0xbbef6571	-0.007305794
242	0xbc42d6ab	-0.011892001
243	0x3c889cd3	0.016676342
244	0xbd2a9a22	-0.0416509
245	0x3cc65cb7	0.024214132
246	0x3cc57389	0.024102943
247	0x3cacdb80	0.02110076
248	0x3cdc2792	0.026874337
249	0xbc2baff1	-0.010478959
250	0xbd0991c6	-0.033586286
251	0xbd31fe37	-0.04345533
252	0x3c98b7ea	0.018642385
253	0xbd170920	-0.036873937
254	0x3c4e1a89	0.012579569
255	0xbc8d06e0	-0.017215192

encoder.2.bias f4 [64]
0	0x3bddfb21	0.0067743217
1	0x3c87e1c2	0.016587142
2	0x3d2ef613	0.042715143
3	0xbd0504a6	-0.032475136
4	0x3cf8938e	0.030343797
5	0x3d0fbe46	0.03509357
6	0x3ca60ea8	0.02027066
7	0xbbc58480	-0.006027758
8	0x3ce6ac50	0.028158337
9	0xbd054a43	-0.032541525
10	0x3ba6e053	0.0050926595
11	0x3d0e7cb8	0.03478691
12	0xbccdc6e7	-0.025119258
13	0xbcd25824	-0.025676794
14	0xbc25c4cd	-0.010117722
15	0x3d23d526	0.039998196
16	0xbcb792fe	-0.022408959
17	0xbc28edb5	-0.01031058
18	0x3bb195d7	0.0054194736
19	0xbc9ad3cc	-0.01889982
20	0x3d15d3a3	0.036578786
21	0x3d287ef7	0.041136708
22	0xbcaac815	-0.02084736
23	0xbcc0b204	-0.023522384
24	0x3cadd7f4	0.021221139
25	0x3c184b73	0.009295332
26	0x3d102c3e	0.035198443
27	0x3c9b70d1	0.018974693
28	0xbcb7ad84	-0.022421606
29	0xbcc1cff7	-0.023658736
30	0xbbd7c71c	-0.006585015
31	0xbb467f87	-0.0030288415
32	0xbd301295	-0.04298647
33	0xbd1d8355	-0.038455326
34	0xbc076d42	-0.008265795
35	0xbc9763d4	-0.018480219
36	0xbc765581	-0.015035034
37	0xbc7b3922	-0.015333446
38	0xbcd7e700	-0.026355267
39	0xbcb80562	-0.022463504
40	0xbc2a4440	-0.010392249
41	0xbb3ee5d5	-0.002912869
42	0xbcdd165e	-0.026988205
43	0xbc725acd	-0.014792156
44	0xbc624190	-0.013809577
45	0xbaaeb710	-0.0013329703
46	0x3c37510b	0.011188756
47	0xbd23429b	-0.03985844
48	0xbc60c8b6	-0.013719728
49	0xbd147969	-0.0362486
50	0xbd13e363	-0.036105525
51	0xbb510652	-0.0031894636
52	0x3b8857ee	0.0041608727
53	0xbccf3530	-0.025293916
54	0xbd01f962	-0.03173197
55	0x3bb15da1	0.0054127728
56	0xbcf5115a	-0.0299155
57	0xbd1d46b9	-0.038397525
58	0xbcb92b05	-0.022603521
59	0xbc1826b3	-0.00928657
60	0x3d002f83	0.03129531
61	0xbcc9cd34	-0.024633981
62	0x3cab0081	0.020874264
63	0xbcbc4056	-0.022979897

encoder.3.weight f4 [128, 64, 3, 3]
0	0xbca9df75	-0.020736435
1	0xbcb5193e	-0.022106763
2	0x3c09da88	0.008413918
3	0xbc0621e9	-0.008186796
4	0xbc7ed211	-0.015553013
5	0xbc37e07b	-0.011222954
6	0x3be87096	0.0070934994
7	0xbd0f2929	-0.034951363
8	0x3d14504f	0.0362094
9	0x3d0e2b1e	0.03470909
10	0xbc6c0c3d	-0.014407215
11	0xbabfd591	-0.0014635791
12	0xbc0e414b	-0.008682559
13	0xbc2fded9	-0.010734283
14	0x3d1a3487	0.03764775
15	0xbcf70554	-0.030153908
16	0xbcfaea99	-0.030629443
17	0x3d070e4c	0.03297262
18	0xbcf4794a	-0.029842991
19	0xbc581af2	-0.013190018
20	0xbd1c0675	-0.038092095
21	0xbc17ce89	-0.00926555
22	0x3cb576b3	0.022151327
23	0xba8c7c40	-0.0010718182
24	0xbbb45023	-0.005502717
25	0xbd192d90	-0.037396967
26	0xbcd227ac	-0.025653683
27	0xbcf1c1e2	-0.029511396
28	0x3c75afb8	0.014995508
29	0x3b47f19e	0.0030509005
30	0x3d3cdf31	0.04611129
31	0x3caf8bc8	0.021428958
32	0xbbb3e57d	-0.0054900036
33	0xbcb13875	-0.021633366
34	0x3d065b8d	0.032802153
35	0x3d0f875f	0.03504121
36	0xbcd88381	-0.026429893
37	0xbc06f6fe	-0.008237598
38	0x3cf8a635	0.030352691
39	0xbc184659	-0.009294116
40	0x3d08d4f6	0.03340622
41	0x3d0c2a90	0.03422028
42	0x3c237f88	0.009979136
43	0x3c4b3b75	0.012404312
44	0x3c1df907	0.009641892
45	0xbceecef9	-0.029151427
46	0x3bd8c46e	0.006615213
47	0x3cfd4a8e	0.03091934
48	0xbd0a05a0	-0.03369677
49	0xbd104887	-0.035225417
50	0x3cf8c3d6	0.03036682
51	0x3cc8a6ee	0.02449366
52	0x3c800cae	0.015631046
53	0xbc8eb3eb	-0.017419776
54	0xb9fc0470	-0.00048068492
55	0x3cb3e46b	0.021959504
56	0xbc0ae4b7	-0.008477381
57	0x3b671d9e	0.0035265456
58	0x3caa3af7	0.02078007
59	0x3cf87813	0.030330693
60	0x3d180837	0.03711721
61	0xbd0bc057	-0.034118976
62	0x3ced1234	0.028939344
63	0xbc87aaa4	-0.01656086
64	0x3cf22915	0.029560605
65	0xbc4108a0	-0.0117818415
66	0x3c6ad96a	0.014334062
67	0x3b4b7cf4	0.003104982
68	0x3d2aee01	0.041730884
69	0xbce4d706	-0.027934562
70	0x3bc2beb1	0.0059431423
71	0xbc45baec	-0.012068491
72	0x3c653b35	0.013991167
73	0x3d05ba7d	0.032648552
74	0x3d1282c0	0.035769224
75	0xbc26ab7d	-0.010172722
76	0x3ac4c7e2	0.0015013183
77	0xbcbe4704	-0.023227222
78	0x3c0b574e	0.008504702
79	0x3d1306a6	0.035895012
80	0xbc604026	-0.013687169
81	0xbd0096bb	-0.031393748
82	0x3d0b7637	0.034048285
83	0xbcf0c6cf	-0.029391674
84	0xbd1cdb80	-0.03829527
85	0xbcd06efe	-0.02544355
86	0x3c894b93	0.01675967
87	0xbd22986e	-0.03969615
88	0x3d17eb83	0.037089836
89	0x3c9e4ccb	0.019323727
90	0x3c022727	0.007943905
91	0xbc19173e	-0.00934392
92	0x3d380338	0.044924945
93	0x3c585705	0.013204341
94	0x3d2bb358	0.041919082
95	0xbac25592	-0.0014826527
96	0x3d00582a	0.03133408
97	0x3c4210c0	0.011844814
98	0x3c976b07	0.018483652
99	0xbcca749f	-0.024713812
100	0x3ba39ab5	0.0049928077
101	0x3cc5266f	0.024066178
102	0x3ce37b9d	0.027768904
103	0xbc55de0d	-0.013053429
104	0x3d100cd9	0.035168502
105	0x3b580f33	0.0032968044
106	0x3d1e76be	0.03868746
107	0xbd097eda	-0.03356824
108	0x3be35b61	0.0069383834
109	0x3cc79595	0.024363318
110	0xbcb42dd9	-0.021994518
111	0x3d045a20	0.032312512
112	0xbbc3313d	-0.0059567974
113	0x3c296443	0.010338846
114	0xbce71427	-0.028207852
115	0xba7fc4e9	-0.000975682
116	0xbacf0236	-0.0015793506
117	0xbc3d6929	-0.011560717
118	0xbce256fe	-0.027629372
119	0xbcc09c6e	-0.023512091
120	0xbb0f09d3	-0.0021825924
121	0x3b142e47	0.0022610591
122	0x3c915987	0.017742885
123	0xbd188c56	-0.03724321
124	0xbd2d530b	-0.042315524
125	0x3cdb8920	0.026798785
126	0xbca49826	-0.020092081
127	0x3ca97671	0.02068636
128	0x3cfcaa83	0.030843025
129	0xbbfd8a14	-0.0077374075
130	0xbc9288c5	-0.017887482
131	0x3cc55b18	0.024091288
132	0xbc91b6e7	-0.01778741
133	0xbc403a2f	-0.011732622
134	0xbcdb9328	-0.026803568
135	0x39bf0705	0.0003643559
136	0xbd0c1697	-0.03420123
137	0xbc8c207f	-0.01710534
138	0xbc88df72	-0.01670811
139	0xbcff31d4	-0.03115169
140	0xbd11ef3b	-0.03562854
141	0xbc8781a1	-0.016541304
142	0xbd32d77c	-0.043662533
143	0xbab093cf	-0.0013471785
144	0x3cb7b9d0	0.02242747
145	0x3d25d514	0.04048641
146	0xbcde2e74	-0.02712176
147	0x3cbc4907	0.02298404
148	0x3d27d447	0.040973928
149	0x3b2f67f9	0.0026764853
150	0x3b91cb49	0.0044492823
151	0xbc658211	-0.014008061
152	0x3d1dbea1	0.038511876
153	0xbcd02a53	-0.025410807
154	0x3c71d467	0.014760113
155	0xbc9539b7	-0.018215997
156	0x3c8419e7	0.016125632
157	0xbd207467	-0.03917351
158	0x3cc66ce5	0.024221847
159	0xbd082d8f	-0.033246573
160	0x3cd38a26	0.02582271
161	0xbca26d93	-0.01982764
162	0xbc540538	-0.012940697
163	0x3c6f1c8b	0.0145942075
164	0x3ca2743a	0.019830812
165	0xbbc862a6	-0.0061152754
166	0x3cedca17	0.029027028
167	0x3cfd6291	0.03093079
168	0x3d161fc5	0.03665139
169	0x3cbf66b8	0.02336441
170	0x3c623624	0.013806853
171	0x3d056e97	0.03257617
172	0xbcfe4d9c	-0.031042866
173	0x3c8005e6	0.015627813
174	0xbc874e82	-0.016516928
175	0xbd026beb	-0.0318412
176	0x3d08d2cd	0.03340416
177	0x3c55833e	0.013031779
178	0x3cef4adc	0.0292105
179	0xbc02860a	-0.007966528
180	0x3c0d65da	0.00863024
181	0x3c5dcb9d	0.013537315
182	0xbd27c5b9	-0.040960047
183	0xbd07f4b4	-0.03319235
184	0xbc3f5db0	-0.011680052
185	0x3b815233	0.0039465665
186	0x3c164f28	0.009174146
187	0x3b9409c3	0.0045177653
188	0xbd2e4647	-0.04254749
189	0xbcff7444	-0.03118337
190	0xb913d446	-0.0001409809
191	0xbc9c3d23	-0.019072121
192	0x3c96043b	0.018312564
193	0x3ceb4071	0.028717251
194	0x3c9a1cc8	0.018812552
195	0xbb252db4	-0.0025204243
196	0xbcaede8e	-0.021346357
197	0xbc8f7120	-0.017509997
198	0xbc8964df	-0.016771732
199	0xbd26dc60	-0.04073751
200	0xbd04bef5	-0.032408673
201	0xbd06c46b	-0.032902163
202	0x3cab3de0	0.020903528
203	0x3aaafb15	0.0013044799
204	0xbd18d1d1	-0.03730947
205	0xbb9eabb1	-0.0048422446
206	0x3c17e93c	0.009271916
207	0xbb72122a	-0.0036937096
208	0xbba400b2	-0.0050049657
209	0x3ca2baed	0.019864524
210	0x3c521eee	0.012824757
211	0xbcf1fcae	-0.029539432
212	0xbc5dfaec	-0.013548594
213	0x3d1ca8c0	0.03824687
214	0x3b988891	0.004654952
215	0x3cd50f8e	0.026008394
216	0xbbb59128	-0.0055409856
217	0xbcd59a59	-0.026074575
218	0x3ba141dc	0.004921181
219	0xbcd00733	-0.025394058
220	0xbb888127	-0.004165787
221	0xbcdc1707	-0.026866449
222	0xbc56d48a	-0.013112197
223	0xbd28b5cf	-0.04118901
224	0xbbde5ec1	-0.006786198
225	0xbb91b9ac	-0.0044471826
226	0x3cc545df	0.024081169
227	0x3c827567	0.015925122
228	0xbc46aee6	-0.01212666
229	0x3cc80184	0.024414785
230	0x3c065bf6	0.008200636
231	0x3c0c0695	0.008546491
232	0x3c20c39c	0.009812262
233	0xbcb198c5	-0.021679292
234	0xbc21aebf	-0.009868323
235	0xbbcd5013	-0.006265649
236	0x3d26f635	0.040762145
237	0x3b04e7ba	0.0020279721
238	0x3b856fe2	0.0040721754
239	0xbc7e3ea5	-0.015517865
240	0x3c308f59	0.010776364
241	0xbcf15d03	-0.029463297
242	0xbc48baa7	-0.012251533
243	0x3cc3d0a0	0.023903191
244	0x3d1b7f02	0.03796292
245	0x3bff2c84	0.007787289
246	0x3b754c32	0.003742945
247	0x3b882cf4	0.0041557495
248	0xbc885710	-0.016643077
249	0xbcb18073	-0.021667695
250	0x3c91c18b	0.017792484
251	0x3cafb641	0.02144921
252	0x3c56158e	0.0130666625
253	0x3d1944f1	0.037419263
254	0xbcc02ec6	-0.023459803
255	0xbcf98044	-0.03045667

encoder.3.bias f4 [128]
0	0xbcb8ed91	-0.022574218
1	0xbced8e34	-0.028998472
2	0x3cb133ef	0.02163121
3	0x3cdef715	0.027217427
4	0xbc6a6257	-0.014305673
5	0x3d0b2368	0.033969313
6	0x3a992748	0.001168468
7	0xbb34a35f	-0.0027563197
8	0xb7d43b10	-2.5299873e-05
9	0xbac36749	-0.0014908101
10	0xbd0e16f3	-0.034689855
11	0xbc6361ba	-0.01387828
12	0xbc86a871	-0.016437741
13	0x3c7887c0	0.015169084
14	0x3d1b5f8f	0.03793293
15	0xbcbd7e3c	-0.023131482
16	0x3c4c2d6f	0.012462004
17	0x3ca846cb	0.02054157
18	0xbcc9cb52	-0.024633083
19	0x3c67ea3b	0.014154966
20	0x399c5cb0	0.00029823696
21	0x3bd4d4f0	0.0064951107
22	0xbc33a9e0	-0.010965794
23	0xbcf4caf9	-0.029881941
24	0xbc3843a5	-0.011246596
25	0xbb988172	-0.004654103
26	0xbcfbb84d	-0.03072753
27	0x3b89b275	0.004202182
28	0xbcc32f8d	-0.023826385
29	0xbcc6e682	-0.024279837
30	0xbd298493	-0.0413862
31	0xbc967fe5	-0.018371532
32	0xbceaecce	-0.02867737
33	0x3c1ae4eb	0.009453992
34	0x3bb78815	0.005600939
35	0x3ce813ba	0.028329719
36	0x3d031bb6	0.03200885
37	0x3b9fc7ae	0.0048760986
38	0xbcea00a1	-0.028564753
39	0x3c59c4b1	0.013291524
40	0x3c5c6828	0.013452567
41	0x3d034997	0.032052603
42	0x3a4170d7	0.000737918
43	0xbca1e05e	-0.019760307
44	0x3cfdbbf6	0.030973416
45	0xbd1ca624	-0.03824438
46	0xbc83b390	-0.016076833
47	0x3c705675	0.01466905
48	0xbd2cadd2	-0.042157955
49	0x3bdedf4c	0.0068015214
50	0xbc7a86a2	-0.015290888
51	0xbc58f095	-0.013240953
52	0xbcaba28b	-0.02095153
53	0x3cbc1ddf	0.022963462
54	0x3d1c5d5a	0.038174964
55	0xbd255f22	-0.04037393
56	0x3ceed845	0.02915586
57	0xbc6cf125	-0.01446179
58	0x3c4dfaad	0.012571973
59	0x3bd702d1	0.006561615
60	0x3d1c0b91	0.038096968
61	0xbc2e97da	-0.010656321
62	0xbd09f125	-0.03367724
63	0x3c56ba88	0.013105996
64	0x3cd10756	0.025516193
65	0x3ce97715	0.028499166
66	0xbd014515	-0.031560022
67	0xbd0dd8bb	-0.03463052
68	0xbd20e513	-0.039280962
69	0x3b1cc534	0.0023921253
70	0x3cee455e	0.029085811
71	0x3c767583	0.015042665
72	0x3c31f652	0.01086195
73	0xbc70c29b	-0.014694835
74	0xbbd9f593	-0.006651589
75	0x3c2d62cb	0.010582636
76	0x3c44541c	0.011982944
77	0xbb43cf4f	-0.0029878204
78	0x3cce03fa	0.02514838
79	0x3d1d43d4	0.038394764
80	0x3c377d01	0.011199237
81	0xbc617b61	-0.013762326
82	0xbc98da6f	-0.018658845
83	0xbca9f12e	-0.020744886
84	0xbcf91fc6	-0.030410659
85	0xbcae97a1	-0.021312537
86	0xbd063a94	-0.03277071
87	0x3c28e9b5	0.010309626
88	0xbd0871ec	-0.03331177
89	0xbc4a3d63	-0.012343737
90	0xbc6c15b8	-0.014409475
91	0x3ab3aab0	0.0013707485
92	0xbd1d5463	-0.038410556
93	0x3cd6bfd0	0.02621451
94	0xbd264036	-0.04058858
95	0x3bb2d9dd	0.0054581002
96	0x3b4e0d74	0.0031441124
97	0x3c8a0f9b	0.016853144
98	0xbcf4e7c6	-0.029895674
99	0x3c978fd5	0.018501202
100	0x3cb5f422	0.022211138
101	0xbcbd3a22	-0.023099009
102	0xbb6a1ec2	-0.00357239
103	0x3c41ff0f	0.011840596
104	0x3cfa81bd	0.030579442
105	0x3b5d028c	0.0033723442
106	0xbd14aaf7	-0.036295857
107	0xbc62e493	-0.013848442
108	0x3d05df11	0.032683436
109	0xbbd40ab4	-0.0064710025
110	0xbd24708e	-0.040146403
111	0x3af28189	0.0018501739
112	0x3c51ff0f	0.012817158
113	0xbadeefe9	-0.0017008755
114	0x3be2a642	0.006916792
115	0xbc2b8bdf	-0.01047036
116	0x3c6de735	0.014520456
117	0x3cd994fd	0.026560301
118	0xbb0a74cb	-0.0021126743
119	0x3caed19f	0.02134019
120	0xbcd859a4	-0.026409931
121	0x3cd11397	0.025522036
122	0xbcd5a074	-0.026077487
123	0xbc3220ac	-0.010872047
124	0xbd047046	-0.032333635
125	0xbd12acec	-0.035809442
126	0x3bb79904	0.0056029577
127	0xbbe56820	-0.007000938

decoder.0.weight f4 [128, 1, 2, 2]
0	0x3ddaef56	0.10690181
1	0xbcec7c63	-0.028867906
2	0x3edf9271	0.43666413
3	0x3e9a901a	0.30188066
4	0x3e97081c	0.29498374
5	0xbf00297f	-0.5006332
6	0x3d641f22	0.055693753
7	0xbe8a30c6	-0.26990336
8	0xbe7c34b9	-0.24629487
9	0x3f00dc53	0.5033619
10	0x3efb47e0	0.49078274
11	0x3e1fc313	0.15601759
12	0xbe567dfc	-0.20946497
13	0x3de2e555	0.11078898
14	0xbdcfc7ef	-0.10145556
15	0x3dab710f	0.083711736
16	0x3e439dcc	0.19103163
17	0x3d9a5257	0.07535236
18	0x3e7b02ca	0.24512783
19	0x3ed5845f	0.41702554
20	0xbef689d5	-0.48152032
21	0xbd8e4be7	-0.06948071
22	0xbebcc6e1	-0.36870483
23	0xbec8737a	-0.39150602
24	0xbee8dc07	-0.45480368
25	0x3eceac44	0.40365803
26	0x3eb4a1bf	0.35279652
27	0xbe80d152	-0.251597
28	0xbee68424	-0.4502269
29	0x3e59f622	0.21285298
30	0xbed87ea4	-0.4228412
31	0xbe3ab26d	-0.18232127
32	0x3e1aa53f	0.15102099
33	0x3ebc99d1	0.36836103
34	0xbebf47f2	-0.37359577
35	0x3edc17c1	0.42986873
36	0xbeb91664	-0.36149895
37	0x3d8a0f38	0.06741184
38	0xbef1b2aa	-0.47206622
39	0x3ece4309	0.4028552
40	0x3dc12551	0.09430946
41	0x3e04c18a	0.12964454
42	0x3e9a98f4	0.3019482
43	0xbee07bf6	-0.43844575
44	0x3db5994f	0.08867132
45	0xbeb8cbc3	-0.36092958
46	0xbdc44785	-0.09583954
47	0x3c557276	0.013027778
48	0x3e16d978	0.14731395
49	0xbef74b30	-0.4829955
50	0x3ed39992	0.41328102
51	0x3e0f92d5	0.14020856
52	0xbe089fca	-0.13342205
53	0xbef4c9aa	-0.47810107
54	0x3ed28822	0.41119486
55	0x3edd3f29	0.4321225
56	0xbeba8b97	-0.36434624
57	0xbe39c5a7	-0.18141805
58	0xbe57708a	-0.21039024
59	0xbe6ef0f1	-0.233341
60	0xbead53d4	-0.33853018
61	0xbcb5389e	-0.022121724
62	0x3e89d1dd	0.26917925
63	0x3efc45ac	0.49271905
64	0xbd9bda9e	-0.07610057
65	0xbe03e3fd	-0.1287994
66	0xbe858bd9	-0.26083258
67	0xbe60c333	-0.21949463
68	0xbcfb5bbf	-0.030683396
69	0x3db62c75	0.08895198
70	0xbdd452e3	-0.10367372
71	0x3d219728	0.039450794
72	0xbeb4b6db	-0.35295758
73	0x3e8b0977	0.2715566
74	0x3e71f475	0.23628409
75	0xbd2ee058	-0.04269442
76	0x3eff0e48	0.49815583
77	0xbe21b6d8	-0.15792406
78	0xbe1eabb1	-0.15495183
79	0x3e928d67	0.28623506
80	0xbe905b02	-0.28194433
81	0xbd7c297f	-0.06156301
82	0x3ec54340	0.3852787
83	0xbbc87de9	-0.0061185253
84	0xbdff128f	-0.12454712
85	0x3de29239	0.11063046
86	0x3ef591ae	0.47962707
87	0xbee1fa61	-0.44136336
88	0x3ebb6529	0.36600617
89	0x3cfba8c0	0.030720115
90	0xbe33f078	-0.175722
91	0xbdae828f	-0.08520996
92	0x3ec61184	0.38685238
93	0x3efbd701	0.49187472
94	0xbed83659	-0.42228964
95	0x3efb995f	0.4914045
96	0x3ed491d4	0.41517508
97	0x3e370f5c	0.17876953
98	0xbd4b38b0	-0.04961461
99	0xbda7cd01	-0.08193398
100	0x3ed8f949	0.4237769
101	0xbeab4b50	-0.33455896
102	0x3db34dd5	0.0875508
103	0xbdc7c031	-0.097534545
104	0x3e82eb8a	0.25570327
105	0xbe22ae98	-0.15886915
106	0x3ebb918a	0.36634475
107	0x3e527b96	0.20554957
108	0x3eb44599	0.3520935
109	0x3eaa842e	0.3330397
110	0xbee1119f	-0.43958756
111	0x3e1ce319	0.15321006
112	0xbe411196	-0.18854365
113	0x3e3dce3a	0.185357
114	0x3df67fce	0.120360956
115	0xbe211230	-0.15729594
116	0xbeebb98c	-0.4604
117	0x3ea89a58	0.32930255
118	0xbe543b92	-0.2072585
119	0xbe7158e6	-0.23569068
120	0x3e42bb8b	0.19016854
121	0xbe25927e	-0.16169164
122	0x3e40196d	0.18759699
123	0xbdf32d5a	-0.118738845
124	0xbdd4a4e1	-0.10383011
125	0x3e72b472	0.23701647
126	0x3e929994	0.28632796
127	0xbec49302	-0.38393408
128	0xbea5a692	-0.32353646
129	0xbefbdd89	-0.49192455
130	0x3ce64f6f	0.028114049
131	0xbe8c4b47	-0.27401182
132	0x3c12a15c	0.008949604
133	0x3e5688e1	0.20950653
134	0x3de40e8b	0.11135586
135	0xbe95689e	-0.2918138
136	0xbd8f735f	-0.07004427
137	0xbea97a59	-0.33101156
138	0xbebb56d4	-0.36589682
139	0xbd95c693	-0.07313266
140	0xbe29185b	-0.16513197
141	0x3de0f4a6	0.10984163
142	0x3d85f04f	0.06539976
143	0xbe7f6fff	-0.24945067
144	0x3b686e30	0.0035466067
145	0x3e79d898	0.2439903
146	0xbddca103	-0.10772898
147	0xbe939f9a	-0.28832704
148	0x3ea680c3	0.32520112
149	0xbe272c5e	-0.16325518
150	0x3dd59162	0.1042812
151	0xbd7af3ae	-0.061267547
152	0x3eea9cfd	0.45822898
153	0xbde2f9c1	-0.11082793
154	0x3e5e4d90	0.21709275
155	0x3e833625	0.25627246
156	0xbe5cf84e	-0.21579096
157	0xbe84ba34	-0.25923312
158	0xbeca2c08	-0.39486718
159	0xbe8e1e50	-0.27757502
160	0x3e96578a	0.29363662
161	0x3e76dcd6	0.2410768
162	0x3ed2d136	0.4117524
163	0xbe644559	-0.22292079
164	0xbc4ba5cd	-0.012429667
165	0xbe86d7e9	-0.263366
166	0xbe9d4858	-0.30719256
167	0x3e871329	0.26381806
168	0x3e26d044	0.16290385
169	0x3c6b0508	0.014344461
170	0x3eb385e0	0.35063076
171	0x3eb88cae	0.3604483
172	0x3eeddcfe	0.46457666
173	0xbe87ef25	-0.2654964
174	0xbedb87ce	-0.42877048
175	0x3e8c04ba	0.27347356
176	0xbeb910e8	-0.3614571
177	0xbed16fd8	-0.40905643
178	0x3e482703	0.19546132
179	0xbea35279	-0.3189886
180	0xbd71a9e0	-0.058999896
181	0x3ee9bae8	0.4565041
182	0x3eb7f17a	0.3592642
183	0xbe55fab2	-0.20896414
184	0xbeb506ad	-0.35356656
185	0xbea42151	-0.32056668
186	0x3eca321e	0.3949136
187	0xbe85563c	-0.26042354
188	0xbe1727d1	-0.14761283
189	0x3ec333a0	0.38125324
190	0xbe4f72da	-0.20258656
191	0x3e8dea4e	0.27717823
192	0x3dfae736	0.12251131
193	0x3c085bfd	0.008322713
194	0xbe31618d	-0.17322369
195	0xbeff4e93	-0.49864635
196	0xbd9d6068	-0.07684404
197	0x3d5905ac	0.052983925
198	0xbebd0964	-0.36921227
199	0x3e977620	0.2958231
200	0xbee0d3f0	-0.43911695
201	0x3e8f38db	0.27973065
202	0xbed859f2	-0.42256123
203	0xbe0797d3	-0.1324151
204	0x3e86e414	0.26345885
205	0x3d8c2d18	0.068445385
206	0x3ebfa666	0.3743164
207	0xbe270bbf	-0.16313075
208	0xbee0ee71	-0.43931916
209	0xbe990546	-0.29886836
210	0xbe510c3b	-0.20414822
211	0xbdefc982	-0.117083564
212	0x3bd55c09	0.0065112156
213	0x3e9962f6	0.29958314
214	0x3dd72765	0.10505561
215	0x3e64b76a	0.22335592
216	0x3dced311	0.100988515
217	0xbe96a0ae	-0.29419464
218	0xbdd9fea0	-0.10644269
219	0x3e0fb06e	0.14032146
220	0x3eb6bb03	0.35689554
221	0xbef8041c	-0.48440635
222	0x3e5cbe37	0.21556936
223	0x3e390481	0.18068124
224	0x3eba3bf3	0.36373863
225	0xbe867d7d	-0.26267615
226	0x3df9503a	0.12173505
227	0x3e990f81	0.2989464
228	0xbdf3f626	-0.119121835
229	0xbe9590a3	-0.29211912
230	0x3d973604	0.073833495
231	0xbd9f9054	-0.077912
232	0xbeafc225	-0.34327808
233	0x3e0d2abd	0.13785835
234	0x3ef72a17	0.482743
235	0xbe24cf2b	-0.16094653
236	0x3eec559c	0.46159065
237	0x3edabe0a	0.42723113
238	0x3ef1328a	0.4710887
239	0xbd9be9ec	-0.076129764
240	0x3e434485	0.19069107
241	0x3ef75b8c	0.48312032
242	0x3efa4053	0.488772
243	0x3eec239d	0.4612092
244	0xbe9a1810	-0.30096483
245	0x3dc3da9d	0.095631815
246	0x3ec38281	0.38185504
247	0xbe82cb20	-0.25545597
248	0x3e6eaa9c	0.2330727
249	0x3d5a7739	0.053336356
250	0x3ed9b54c	0.4252113
251	0xbe93e078	-0.28882194
252	0xbe933462	-0.28750902
253	0x3e601996	0.2188476
254	0x3eb27795	0.3485686
255	0xbebef959	-0.37299612
